model/Multi/3layers.pt (torch_old, 49574 bytes, 4 tensors)

linears.0.weight f4 [103, 103]
-0.18752423 0.110161595 -0.022087008 -0.10054305 -0.011243512 0.35188332 0.0507078 0.121851616
0.17334828 -0.21836157 0.22382544 -0.25993055 -0.030816738 -0.13353124 0.1316031 0.19144548
0.021101972 -0.7783294 -0.24411228 0.24104059 -0.15211686 0.073421836 -0.3874608 -0.3781544
0.014035267 -0.39126658 -0.26229423 -0.436383 -0.12345926 0.16839232 -0.29715744 -0.17133276
-0.14939186 -0.23112628 -0.0018559472 0.015127336 -0.3655828 0.06716675 0.25885984 0.16777745
0.2379103 -0.3013359 0.015598065 0.21210451 0.02614408 0.062549494 0.13620919 0.1778258
-0.15195946 0.22641124 -0.12868993 -0.08325238 0.07197869 -0.16313104 -0.3281461 -0.060041726
-0.12662749 -0.013351644 -0.3410074 -0.032024857 0.1599908 0.16947955 0.24808496 -0.015121262
-0.16127658 0.23299883 0.08650822 0.35045266 -0.30091915 -0.08433746 -0.2685453 0.11197568
0.023890479 -0.034941696 0.087343454 0.69569904 0.105791 0.39844394 0.7892561 -0.32176095
-0.3752297 0.17817205 0.2056882 -0.06055211 0.082229614 0.16498552 0.25347298 0.051863227
-0.030080376 -0.0046205283 0.05989446 0.11669247 0.14308463 -0.17251076 0.23420276 0.08054973
-0.4004198 -0.19368456 0.39207897 -0.12322561 -0.11101259 -0.30206054 0.033881705 -0.30828726
-0.9036256 -0.25950474 -0.9261795 0.40804258 -0.055316944 -0.13643649 0.0856355 -0.12059462
-0.44093153 0.24421819 0.07440062 -0.28548667 -0.3435642 -0.07451016 2.471246e-05 0.4479579
0.34674454 0.60056365 -0.40664232 0.05076415 0.35162547 -0.021545865 0.049419466 0.14691359
0.53327966 0.24154903 -0.17715693 -0.34679252 -0.14996347 -0.52175474 -0.30136853 -0.48029202
-0.013508072 0.35058743 -0.00918952 -0.55168974 -0.20075388 0.20566252 0.04041149 0.16745408
-0.10632898 0.26247427 0.48487392 0.41958198 0.21829033 0.20754676 0.0149147445 0.02308614
0.21787877 -0.20921245 -0.27391177 0.35386017 -0.1840373 -0.02802282 -0.05872889 -0.105237074
-0.2044985 0.74592555 0.029075405 -0.21747456 -0.007814587 -0.46173716 0.020336578 -0.28482684
0.17446624 -0.3691242 -0.1646714 -0.5273616 0.2414616 0.18103366 0.27409935 -0.1883206
0.101955585 0.25921342 0.4336851 0.14741701 0.5426202 0.1573418 -0.21585318 0.026604889
-0.57708603 0.36099043 0.2602127 0.43939826 -0.6129757 0.3463303 -0.15103446 -0.06198022
-0.07406623 0.23772547 0.2723179 0.28772095 0.14745691 -0.27953604 -0.55198973 -0.30578464
0.53818774 0.20661026 0.048803147 -0.6542664 0.5242477 -0.075615674 0.14395563 0.16487223
-0.34824097 0.45565876 0.25551236 0.48913884 0.49227962 0.5007468 0.32401106 0.43582577
-0.30102432 -0.27382508 -0.10433045 -0.086645156 -0.14767534 -0.04787635 -0.10557626 -0.2721192
0.14081027 -0.0062070517 -0.4620419 0.19496317 -0.3330201 0.2830915 -0.12205484 0.52475005
0.02796912 -0.047016278 0.3595763 0.034631867 0.25449505 0.123416 0.34510556 0.4157855
-0.23174497 -0.009467631 0.23927812 0.51648766 0.18250911 0.7548924 -0.1552022 -0.12320278
0.5164238 0.11078774 0.39889324 0.22931091 0.19755094 -0.3387458 0.10150804 -0.07860261
00000000: 5a06 40be 679c e13d d0ef b4bc 84e9 cdbd
00000010: b536 38bc 0d2a b43e fbb2 4f3d 578d f93d
00000020: 3682 313e 2d9a 5fbe 7f32 653e 9e15 85be
00000030: 6273 fcbc 6abc 08be f7c2 063e 490a 443e
00000040: 0bde ac3c 9840 47bf 92f8 79be 58d3 763e
00000050: 86c4 1bbe 305e 963d 4361 c6be 749d c1be
00000060: 2df4 653c 1854 c8be 6e4b 86be 986d dfbe
00000070: 35d8 fcbd 096f 2c3e 0525 98be db71 2fbe
00000080: 2efa 18be 5eac 6cbe 4143 f3ba a5d8 773c
00000090: ab2d bbbe b98e 893d 4789 843e dacd 2b3e
000000a0: c29e 733e b348 9abe 078f 7f3c ed31 593e
000000b0: 1c2c d63c f319 803d 6c7a 0b3e f717 363e
000000c0: 439b 1bbe 59d8 673e 4bc7 03be 3980 aabd
000000d0: 9069 933d d30b 27be c402 a8be 50ee 75bd
000000e0: a3aa 01be dbc0 5abc 8698 aebe 7f2c 03bd
000000f0: a1d4 233e 0c8c 2d3e fc09 7e3e 2bbf 77bc
00000100: b025 25be 3f97 6e3e 392b b13d 886e b33e
00000110: 1312 9abe 1eb9 acbd c57e 89be 8153 e53d
00000120: f7b5 c33c 061f 0fbd 20e1 b23d 5519 323f
00000130: f4a8 d83d d800 cc3e b00c 4a3f dabd a4be
00000140: 1b1e c0be bc72 363e ed9f 523e 7d05 78bd
00000150: 0068 a83d f7f1 283e 36c7 813e 896e 543d
00000160: 1f6b f6bc cd67 97bb e553 753d 76fc ee3d
00000170: c784 123e a9a6 30be d9d2 6f3e 42f7 a43d
00000180: d303 cdbe 3f55 46be 93be c83e b55d fcbd
00000190: 925a e3bd aea7 9abe 8bc7 0a3d d4d7 9dbe
000001a0: 0254 67bf cedd 84be 1a1a 6dbf f5ea d03e
000001b0: 0594 62bd 02b6 0bbe aa61 af3d 50fa f6bd
000001c0: c7c1 e1be 5514 7a3e 5a5f 983d 4f2b 92be
000001d0: a6e7 afbe c898 98bd 9b4d cf37 bd5a e53e
000001e0: 8088 b13e 8abe 193f 6c33 d0be 12ee 4f3d
000001f0: 4108 b43e f480 b0bc 116c 4a3d 8470 163e
00000200: 0485 083f a158 773e a068 35be ca8e b1be
00000210: 0690 19be b891 05bf fa4c 9abe d6e8 f5be
00000220: f650 5dbc 3280 b33e a48f 16bc 8a3b 0dbf
00000230: 6d92 4dbe 3299 523e 8586 253d 1579 2b3e
00000240: 02c3 d9bd 0763 863e 6541 f83e 73d3 d63e
00000250: 8087 5f3e 2387 543e f95c 743c 251f bd3c
00000260: 9d1b 5f3e ca3b 56be 2a3e 8cbe 292d b53e
00000270: 4674 3cbe 1d90 e5bc b48d 70bd 8986 d7bd
00000280: 0e68 51be faf4 3e3f 8b2f ee3c a7b1 5ebe
00000290: c108 00bc d068 ecbe e598 a63c d3d4 91be
000002a0: 47a7 323e d9fd bcbe 9f9f 28be 2b01 07bf
000002b0: b641 773e e360 393e c056 8c3e 1ed7 40be
000002c0: 17ce d03d 9fb7 843e f90b de3e 7cf4 163e
000002d0: 28e9 0a3f 351e 213e 9e08 5dbe 7ff2 d93c
000002e0: e9bb 13bf bdd3 b83e 993a 853e cff8 e03e
000002f0: faeb 1cbf 3552 b13e c7a8 1abe f9de 7dbd
00000300: 09b0 97bd 4e6e 733e 406d 8b3e 2950 933e
00000310: f2fe 163e 591f 8fbe 334f 0dbf ce8f 9cbe
00000320: acc6 093f a491 533e cfe5 473d 017e 27bf
00000330: 1935 063f 64dc 9abd 1b69 133e 44d4 283e
00000340: a44c b2be 1b4c e93e 84d2 823e 6870 fa3e
00000350: 130c fc3e f130 003f c7e4 a53e 8e24 df3e
00000360: dc1f 9abe cd32 8cbe 34ab d5bd 0473 b1bd
00000370: 3438 17be fe19 44bd 5e38 d8bd 3553 8bbe
00000380: 9130 103e 8664 cbbb c290 ecbe 6da4 473e
00000390: 9c81 aabe 5ef1 903e e3f7 f9bd 0556 063f
000003a0: 7f1f e53c 2494 40bd 631a b83e 25da 0d3d
000003b0: 2d4d 823e 87c1 fc3d adb1 b03e d6e1 d43e
000003c0: 8e4e 6dbe 1f1e 1bbc 5305 753e 8938 043f
000003d0: abe3 3a3e a140 413f 53ed 1ebe bd51 fcbd
000003e0: 5a34 043f afe4 e23d bc3b cc3e 7bd0 6a3e
000003f0: cb4a 4a3e 1770 adbe 73e3 cf3d 68fa a0bd

linears.0.bias f4 [103]
0.15078844 0.036130015 0.21551806 -0.022368686 0.06356536 0.07826106 0.13734193 -1.0124275e-28
-0.18299891 0.23238486 -1.3624721e-13 0.05910366 0.074786596 -0.23327117 -0.09931045 0.0023732146
-0.010173799 0.07876382 -0.06238606 0.04442687 -0.072091304 0.053901482 -0.26106113 0.08971472
0.050113957 0.10268127 0.14920709 0.108262375 0.18661132 0.11673579 0.19916597 0.04312912
0.12449436 -0.03863607 -0.26553813 0.33668837 0.09331741 0.0758877 0.08781042 0.13195314
0.177291 -4.0750824e-06 0.05242316 0.053303704 -0.0020249526 0.08650128 0.3170291 0.0823107
0.08637345 0.10572244 0.028926158 -0.0007330559 0.118100084 -0.028504232 -0.13738793 0.105459526
0.04010663 0.037225958 0.09864992 -0.26368865 -5.497435e-05 0.09511682 -0.11122038 0.032972746
0.009981627 0.24727406 0.13327423 0.17796852 0.041292842 0.0014170655 0.11638634 0.18810052
0.11737075 0.17273979 0.03130125 0.14818914 0.086676225 0.13952558 0.12118462 -1.1711286e-31
0.28543672 0.24415669 0.19322473 0.08554278 0.07554486 0.13832347 0.18003911 0.1556521
0.13335189 0.08316402 -0.020567304 0.104913935 0.09761624 0.16518524 1.3045938e-31 0.015054845
0.15137525 0.06535614 -0.013274091 0.09976588 -8.4515295e-07 0.1585566 -0.033639826
00000000: 4968 1a3e 11fd 133d c4b0 5c3e 893e b7bc
00000010: 8e2e 823d 5647 a03d 5da3 0c3e 2757 0091
00000020: 1164 3bbe 4cf6 6d3e 9666 19aa ae16 723d
00000030: b729 993d a3de 6ebe 4763 cbbd ef87 1b3b
00000040: 01b0 26bc ed4e a13d 8688 7fbd f3f8 353d
00000050: 9ba4 93bd cdc7 5c3d cea9 85be 5abc b73d
00000060: 4b44 4d3d 8f4a d23d bec9 183e aab8 dd3d
00000070: 0a17 3f3e 2d13 ef3d 2af2 4b3e 29a8 303d
00000080: e6f6 fe3d db40 1ebd 9df4 87be 6b62 ac3e
00000090: 331d bf3d 036b 9b3d f3d5 b33d b91e 073e
000000a0: c68b 353e b1bc 88b6 abb9 563d fc54 5a3d
000000b0: 11b5 04bb 9527 b13d a351 a23e 8392 a83d
000000c0: 90e4 b03d 0285 d83d 8df6 ec3c 8c2a 40ba
000000d0: 75de f13d b581 e9bc 6caf 0cbe 2afb d73d
000000e0: da46 243d 3f7a 183d f808 ca3d 3302 87be
000000f0: 4294 66b8 9bcc c23d 83c7 e3bd 6e0e 073d
00000100: fa89 233c 6935 7d3e 0a79 083e 613d 363e
00000110: af22 293d d4bc b93a f65b ee3d 6c9d 403e
00000120: 1360 f03d b3e2 303e bd35 003d e5be 173e
00000130: 4e83 b13d cbdf 0e3e a42f f83d 6c05 188c
00000140: c324 923e 3604 7a3e b4dc 453e 0e31 af3d
00000150: 43b7 9a3d aba4 0d3e 2c5c 383e 4463 1f3e
00000160: 668d 083e e651 aa3d c37c a8bc 1edd d63d
00000170: 06eb c73d 5226 293e 9158 290c 99a8 763c
00000180: 1d02 1b3e 71d9 853d 937b 59bc 0e52 cc3d
00000190: 78de 62b5 a95c 223e eac9 09bd

linears.2.weight f4 [14, 103]
-0.3856435 -0.3940699 1.3871144 -0.5439331 0.17602713 -2.2889924 0.33385655 7.8688015e-29
-1.373068 -0.09492757 -5.5611724e-15 1.6159681 -0.40280357 -1.2609472 2.0763857 0.5582517
-0.3105502 0.7809335 0.005446504 0.32901564 0.82858133 0.230432 -0.48447543 0.67322123
0.9212487 -1.1456665 -0.4298765 -0.2672988 0.42871037 -0.28150183 -1.3392067 -0.6859849
-0.63946855 0.85819566 -0.89338535 -0.49450046 -1.5147222 1.030147 0.99179566 0.22469915
0.48664713 3.9434595e-05 0.8605555 -0.68078053 1.095041 -0.6439 -0.16799732 -0.55661345
-0.09214547 -0.9141777 -0.011927603 -1.9698758e-10 -0.19803159 -0.49699172 -0.47763354 -1.5936933
1.1641208 1.398036 1.2980188 0.9627275 1.8011433e-06 -0.68980277 -0.66880625 -0.8788709
-0.27766475 -0.3409326 0.3549674 -0.5429731 0.6011656 -0.16769113 1.0104569 -0.40375882
0.15841743 -0.08768303 0.76674175 -0.71682715 0.90028065 -1.3003173 -0.69960743 -5.213e-41
1.2001929 -0.6966552 1.4204619 -0.58731276 -0.802267 -1.6344618 0.81066984 0.9403236
-0.25623113 0.26738665 0.86489505 -0.3179896 0.17305562 -0.4945442 -5.5614952e-33 -1.227735
-0.46036246 -1.6871929 1.2455753 -1.1701626 9.849951e-22 0.4022664 0.64675766 -0.2907314
-0.91291344 0.9083848 -0.5841105 1.18921 -0.79574084 -0.07881871 -2.1241962e-29 -1.6815475
0.16488133 2.7014935e-14 1.5588946 -0.8237134 -1.9571934 2.0622816 0.8707877 0.85208464
0.652611 0.900824 1.5529681 0.6785934 -0.9684179 -0.28121343 -0.7822633 1.3764479
-0.45900446 -0.86464024 -0.003154548 1.0513185 -0.3505877 -0.09122194 -0.27181005 0.25802532
0.26892602 -0.79884833 -0.35521835 -1.2936312 1.3765666 0.22921936 -0.016458744 -0.20603141
-0.00019003278 0.48321602 -1.2445104 0.76290786 -0.41547778 -0.20721 -0.14401917 -1.413121
-1.0786785 -0.23440748 -1.1458428e-09 -0.039148696 -0.8761973 -0.7505777 -0.8617767 0.3983357
2.0043442 1.1137192 0.335352 3.369611e-06 -0.34093484 -0.80066055 0.12404344 -0.6110097
0.13229434 0.35445702 0.36410105 0.27147537 -0.2625843 0.4475577 -0.6848082 -0.5779083
1.0088143 0.790261 -0.460555 -0.8678941 0.4377899 -2.2777357 5.5148e-41 1.4180524
-0.17215814 1.7154785 -0.5431184 -1.509559 -1.4399576 0.13648276 -0.05075058 0.87343526
0.6779848 2.3204815 -0.21545357 0.16411401 -1.5910316 -8.22934e-31 -1.421314 -0.27237812
-1.6177008 0.68312037 0.08977609 -1.4993623e-14 0.47708893 -0.45575508 -0.8728482 0.8171953
0.3577111 -0.6569837 1.488927 0.6652018 -0.14042026 1.55157195e-30 -0.78977937 0.39116552
-2.8095388e-14 -0.05999231 -1.3140775 -1.5211357 -0.1571398 -1.3468808 1.5629327 -0.19544986
1.0391146 1.6509873 -1.6617322 -0.7113815 0.12240649 0.08695445 0.8866255 0.18579741
0.19583556 0.5495788 0.13402121 0.18115468 1.4371608 0.36241648 1.0611523 -0.3689675
-0.8017862 -0.6136705 -0.09706525 0.055183396 0.02332257 1.0085204 -1.6880163 -0.0003692601
-0.044138677 -0.96625006 0.2685367 0.9770356 -0.81092864 1.0824152 0.24044406 -0.7030613
00000000: 1173 c5be 88c3 c9be f78c b13f 333f 0bbf
00000010: 7540 343e da7e 12c0 3fef aa3e 717f c710
00000020: b1c0 afbf 6369 c2bd c35c c8a7 0bd8 ce3f
00000030: 453c cebe b866 a1bf 81e3 0440 95e9 0e3f
00000040: 7000 9fbe 42eb 473f 9678 b23b bd74 a83e
00000050: e81d 543f 5ef6 6b3e 2a0d f8be 3a58 2c3f
00000060: f4d6 6b3f 33a5 92bf c618 dcbe 63db 88be
00000070: ed7f db3e 0221 90be 206b abbf b59c 2fbf
00000080: 36b4 23bf b6b2 5b3f e7b4 64bf 2a2f fdbe
00000090: 6be2 c1bf dbdb 833f 52e6 7d3f 8917 663e
000000a0: d029 f93e 9366 2538 5e4d 5c3f a247 2ebf
000000b0: 4e2a 8c3f a1d6 24bf 7d07 2cbe 387e 0ebf
000000c0: c4b6 bcbd 8d07 6abf fe6b 43bc 1397 58af
000000d0: cbc8 4abe b375 febe 628c f4be 24fe cbbf
000000e0: e901 953f d8f2 b23f 7b25 a63f 4f75 763f
000000f0: d0be f135 ea96 30bf e336 2bbf affd 60bf
00000100: 132a 8ebe b88e aebe 49be b53e 4900 0bbf
00000110: fde5 193f 39b7 2bbe a756 813f 7ab9 cebe
00000120: 2e38 223e 2993 b3bd 3049 443f fc81 37bf
00000130: cb78 663f cc70 a6bf 7919 33bf 5191 0080
00000140: ec9f 993f ff57 32bf b2d1 b53f 215a 16bf
00000150: 5f61 4dbf 0b36 d1bf 0f88 4f3f 0cb9 703f
00000160: ba30 83be e7e6 883e c369 5d3f 88cf a2be
00000170: 7e35 313e e634 fdbe f603 e789 6c26 9dbf
00000180: a1b4 ebbe f0f5 d7bf 036f 9f3f e3c7 95bf
00000190: 27d9 941c ddf5 cd3e e991 253f bfda 94be
000001a0: b2b4 69bf e88b 683f 4488 15bf 0938 983f
000001b0: acb5 4bbf b46b a1bd 496b d78f f33c d7bf
000001c0: a7d6 283e 3354 f328 dc89 c73f e2de 52bf
000001d0: 5085 fabf 6cfc 0340 f1eb 5e3f 3822 5a3f
000001e0: 8411 273f 679c 663f a9c7 c63f 4cb8 2d3f
000001f0: 3cea 77bf 35fb 8fbe 6842 48bf 722f b03f
00000200: a202 ebbe 1059 5dbf 88bc 4ebb 9b91 863f
00000210: 3b80 b3be 92d2 babd b02a 8bbe e51b 843e
00000220: acb0 893e 5381 4cbf 2edf b5be b595 a5bf
00000230: 5633 b03f 7bb8 6a3e 7dd4 86bc e6f9 52be
00000240: 8943 47b9 1768 f73e 1e4c 9fbf ee4d 433f
00000250: 81b9 d4be dc2e 54be c379 13be 26e1 b4bf
00000260: 2312 8abf 8408 70be c27b 9db0 625a 20bd
00000270: 774e 60bf dc25 40bf 669d 5cbf a8f2 cb3e
00000280: 2d47 0040 5a8e 8e3f 42b3 ab3e 7a21 6236
00000290: 038f aebe 17f8 4cbf 7d0a fe3d 226b 1cbf
000002a0: 2b78 073e 647b b53e 746b ba3e d2fe 8a3e
000002b0: 7371 86be 4826 e53e 974f 2fbf ccf1 13bf
000002c0: d420 813f 8b4e 4a3f ddcd ebbe 4f2e 5ebf
000002d0: ff25 e03e 6cc6 11c0 bb99 0000 be82 b53f
000002e0: 394a 30be cd94 db3f cf09 0bbf 3b39 c1bf
000002f0: 8850 b8bf 23c2 0b3e d7df 4fbd 7499 5f3f
00000300: 6990 2d3f c582 1440 dc9f 5cbe 810d 283e
00000310: eca6 cbbf 5787 858d 9eed b5bf 2575 8bbe
00000320: d210 cfbf fae0 2e3f 87dc b73d f10c 87a8
00000330: 0045 f43e bb58 e9be fb72 5fbf b633 513f
00000340: e925 b73e 1530 28bf 2995 be3f aa4a 2a3f
00000350: 54ca 0fbe c7c1 fb0d fb2e 4abf d946 c83e
00000360: 8e0f fda8 7fba 75bd b133 a8bf 93b4 c2bf
00000370: 41e9 20be 9766 acbf 2e0e c83f 0224 48be
00000380: b501 853f 8d53 d33f a4b3 d4bf 191d 36bf
00000390: 41b0 fa3d 2d15 b23d e4f9 623f ad41 3e3e
000003a0: 1e89 483e 32b1 0c3f db3c 093e 9d80 393e
000003b0: e3f4 b73f a78e b93e d7d3 873f 4fe9 bcbe
000003c0: dc41 4dbf 8319 1dbf 25ca c6bd fc07 623d
000003d0: f90e bf3c 3217 813f eb10 d8bf 4099 c1b9
000003e0: c2ca 34bd 2a5c 77bf a47d 893e 011f 7a3f
000003f0: 0599 4fbf 958c 8a3f f836 763e d3fb 33bf

linears.2.bias f4 [14]
-0.11938236 -0.09517219 -0.13591512 -0.13284908 0.123878494 0.4148053 -0.064747095 0.37572917
0.28379184 0.29955804 0.168943 -0.30014732 -0.30647123 -0.5942395
00000000: bd7e f4bd a3e9 c2bd 552d 0bbe 9709 08be
00000010: 02b4 fd3d 5c61 d43e 209a 84bd 935f c03e
00000020: 2a4d 913e ac5f 993e 65ff 2c3e e9ac 99be
00000030: cce9 9cbe 1420 18bf
