model/Multi/3layers_109_112.pt (torch_old, 49574 bytes, 4 tensors)

linears.0.weight f4 [103, 103]
0	0xbf0e783f	-0.5565223
1	0x3f067c24	0.52533174
2	0x3be841a8	0.007087905
3	0xbe9aeb58	-0.30257678
4	0xbef94524	-0.48685563
5	0xbfc45932	-1.533972
6	0x3f14cbe6	0.58123624
7	0xbef7d524	-0.484048
8	0x3f3eb08d	0.74488145
9	0xbf92df95	-1.1474482
10	0xbf60c44b	-0.8779952
11	0x3f6dae87	0.9284443
12	0x3f55a4e0	0.83454704
13	0x3fbc347c	1.4703517
14	0x3d83395b	0.06407424
15	0xbf30b518	-0.6902633
16	0x3e24f442	0.16108802
17	0x3ebcf7cf	0.36907813
18	0x3e8dc5b5	0.276899
19	0xbe125d8a	-0.14293495
20	0x3e18ab2c	0.14909047
21	0x3e8acb2e	0.2710814
22	0x3edd685d	0.43243685
23	0xbea4cc07	-0.3218691
24	0x3eb62178	0.3557241
25	0xbeaf9ce8	-0.34299397
26	0xbeba49f0	-0.36384535
27	0x3ec4d12b	0.38440832
28	0x3f64bc4c	0.8934982
29	0xbf2dc648	-0.6788068
30	0xbf83d731	-1.0300046
31	0x3eddd40b	0.43325838
32	0xbec0e9a4	-0.37678254
33	0xbcbb0f62	-0.022834484
34	0x3f44b162	0.76833165
35	0xbe42086e	-0.18948528
36	0x3b5fc9d4	0.0034147399
37	0x3f091c62	0.53558934
38	0x3f9a62c0	1.2061386
39	0x3f6b08d6	0.9181036
40	0xbf6702b8	-0.90238523
41	0xbee0f9bb	-0.4394053
42	0x3f1a12ac	0.6018474
43	0x3ece250c	0.4026264
44	0xbf76662d	-0.9624966
45	0xbfc350f0	-1.5259075
46	0xbf16d81f	-0.58923525
47	0xbf179836	-0.5921663
48	0x3f7676b0	0.9627485
49	0xbe81189e	-0.25214094
50	0x3f066c9f	0.5250949
51	0xbf43709d	-0.7634371
52	0xbe7667eb	-0.24063079
53	0x3da658c3	0.08122399
54	0xbf2f3eb5	-0.6845506
55	0x3eed4978	0.46345115
56	0xbd418e9e	-0.04725515
57	0xbe3cc578	-0.18434703
58	0xbf0b499c	-0.54409194
59	0x3ebcd9b0	0.36884832
60	0x3ed0265a	0.4065426
61	0xbde9eb55	-0.11421839
62	0x3f8029a1	1.0012704
63	0xbb6d8420	-0.0036242083
64	0xbf255e08	-0.64596605
65	0xbdcebeda	-0.10094996
66	0xbf1bb7aa	-0.60827124
67	0x3ee30760	0.44341564
68	0x3f2b7c1b	0.66986245
69	0x3e9b7b9b	0.3036774
70	0xbd85e4c8	-0.06537777
71	0x3f9001b5	1.1250521
72	0x3d66ae61	0.056318644
73	0x3e38cd90	0.18047166
74	0x3e04488a	0.12918296
75	0x3ebe2592	0.3713804
76	0x3f4823be	0.7817954
77	0xbf84c0f9	-1.037139
78	0xbeead065	-0.45862117
79	0x3f9196f0	1.1374187
80	0x3eb85290	0.3600049
81	0xbf47d877	-0.78064674
82	0x3f35c774	0.71007466
83	0xbf2b8fbf	-0.67016214
84	0x3f649825	0.89294654
85	0x3fbdb8e4	1.4822049
86	0xbcccff14	-0.025023974
87	0xbfae3622	-1.361027
88	0xbf0f716e	-0.56032455
89	0xbe879205	-0.26478592
90	0xbe93a5d9	-0.2883747
91	0x3e7f86d1	0.24953772
92	0x3f113568	0.56722116
93	0xbf0a8a4a	-0.5411726
94	0xbecd50b9	-0.4010065
95	0xbf8c17ea	-1.0944798
96	0x3f3519a6	0.7074226
97	0x3f3e9c7b	0.7445752
98	0x3f2ce7cd	0.675412
99	0xbf914022	-1.1347697
100	0x3f332814	0.6998303
101	0x3ef657c7	0.48113844
102	0xbec363d5	-0.38162103
103	0xbe84d1d6	-0.25941342
104	0x3fd7197f	1.6804656
105	0xbf3fd763	-0.7493803
106	0x3d61f4f3	0.055165242
107	0x3ec54e21	0.3853617
108	0xbd7416f1	-0.05959219
109	0x3f014d31	0.5050841
110	0x3e6b1f01	0.22961046
111	0xbe1a1f25	-0.15050943
112	0xbdc92935	-0.09822313
113	0x3f2c6d8b	0.6735465
114	0xbf23dd68	-0.64009714
115	0x3f8ecbe4	1.1155972
116	0xbfe6b864	-1.8025022
117	0xbde9b50c	-0.11411485
118	0x3edabae6	0.42720717
119	0x3da41ae9	0.08012945
120	0xbdade217	-0.08490389
121	0xbfb2add0	-1.3959293
122	0xbfb988f2	-1.4494917
123	0x3f811af9	1.0086356
124	0x3ef0d968	0.47040868
125	0xbeb5228f	-0.3537793
126	0x3f22eb85	0.63640624
127	0xbda23d17	-0.07921808
128	0xbe038165	-0.12842329
129	0xbf36a85c	-0.71350646
130	0x3e9bba56	0.304156
131	0x3ebc1334	0.367334
132	0x3d0afb53	0.033931088
133	0xbd2a77c1	-0.041618112
134	0xbe989c70	-0.29806852
135	0x3e2d634b	0.16932409
136	0xbf38f507	-0.7224888
137	0x3f7bdb66	0.9838165
138	0x3e855f80	0.26049423
139	0x3e8cfeed	0.27538243
140	0x3e9d34b9	0.30704287
141	0x3f018b85	0.50603515
142	0x3fa2fcf0	1.273344
143	0xbf0db263	-0.5535032
144	0x3ece0f78	0.40246177
145	0x3f8b91e8	1.0903902
146	0x3f78799a	0.9706055
147	0x3f25849d	0.64655477
148	0x3f223ed6	0.6337713
149	0xbb905a2b	-0.00440528
150	0x3edfd4af	0.43716952
151	0xbeb4e46d	-0.35330525
152	0x3faf5723	1.3698467
153	0xbd5c1759	-0.053733204
154	0xbea0c0f2	-0.31397206
155	0xbf031e3c	-0.5121801
156	0xbfcfd58a	-1.6237042
157	0x3f01f0f9	0.5075832
158	0x3f3ba0c9	0.73292214
159	0xbfe455b7	-1.7838658
160	0xbe04df4c	-0.12975806
161	0xbf31a4f0	-0.693923
162	0xbe591b8f	-0.21201919
163	0xbf32980b	-0.6976325
164	0xbea1e4bd	-0.31619826
165	0x3e4783fa	0.19483939
166	0xbe1a2689	-0.15053762
167	0x3f84514e	1.0337312
168	0xbc7f5906	-0.01558519
169	0x3fbaf432	1.4605772
170	0xbf255f3b	-0.64598435
171	0x3f23a37d	0.6392134
172	0xbe2ea6b4	-0.1705578
173	0xbf6e022e	-0.92972076
174	0xbf9b9a58	-1.2156477
175	0x3f2dbb6e	0.6786412
176	0xbf8b801d	-1.0898472
177	0xbf129c53	-0.5726978
178	0x3d28c2eb	0.041201513
179	0xbf738ca7	-0.95136493
180	0x3fb703c3	1.4298023
181	0x3f191296	0.59793985
182	0xbf8582e6	-1.0430572
183	0xbf760ec8	-0.96116304
184	0x3fdfe0c4	1.7490468
185	0x3f48386a	0.7821108
186	0x3d47dac2	0.048792608
187	0xbf39e222	-0.72610676
188	0x3efd3f49	0.49462345
189	0x3e1638b2	0.14670065
190	0x3f64d807	0.8939213
191	0x3f0eeb3f	0.5582771
192	0xbfe6ad19	-1.8021575
193	0xbfbf8c10	-1.4964619
194	0x3f254df0	0.6457205
195	0x3d9b8d63	0.07595327
196	0x3f62306e	0.8835515
197	0x3e03d979	0.12875928
198	0xc0011056	-2.016622
199	0xbec4d690	-0.38444948
200	0x3ea23c3d	0.31686583
201	0x3f3453a5	0.7044013
202	0x3d1a3ef3	0.03765769
203	0x3ed89f3d	0.4230899
204	0x3f473619	0.7781692
205	0xbe061ff6	-0.1309813
206	0xbd9321b6	-0.07184164
207	0x3f505080	0.81372833
208	0xbd63eb2d	-0.055644203
209	0xbeb40bf4	-0.3516537
210	0xbe360a03	-0.17777257
211	0x3e15c7ae	0.14626953
212	0xbf03374b	-0.51256245
213	0xbdc6a149	-0.096987315
214	0x3f32188f	0.69568723
215	0xbdc60306	-0.096685454
216	0x3ee2e529	0.4431546
217	0x3f90d918	1.1316252
218	0x3dfa571c	0.12223646
219	0xbf050b36	-0.5197023
220	0xbe15f2f2	-0.14643458
221	0xbed60c59	-0.41806296
222	0xbf5d8c6e	-0.86542404
223	0x3ecbece9	0.39829186
224	0x3f2ef375	0.68340236
225	0x3fd2c145	1.6465231
226	0x3eb2191a	0.34784776
227	0x40052f33	2.0810058
228	0x3f2516f6	0.6448816
229	0x3efec5db	0.49760327
230	0xbde14edc	-0.11001369
231	0xbfa2a8b6	-1.2707736
232	0xbf3d2fd3	-0.739011
233	0xbf18a3bf	-0.59624857
234	0xbda1bfa8	-0.07897884
235	0xbf2a90c8	-0.6662717
236	0x3f10fa38	0.56631804
237	0x3a876189	0.001032875
238	0x3f6203ad	0.8828686
239	0xbf2fcd98	-0.68673086
240	0xc0038846	-2.0551925
241	0x3ef8bee5	0.4858314
242	0xbe1be2e0	-0.15223265
243	0x3fbf85eb	1.4962744
244	0x3e6a9179	0.22907056
245	0x3e4baaf2	0.19889429
246	0xbea71f96	-0.32641286
247	0xbff504fb	-1.9142145
248	0xbf19a6bf	-0.6002006
249	0xbf01c2dc	-0.50687957
250	0x3ede64d5	0.43436304
251	0x3e9429fa	0.28938276
252	0x3ca6283d	0.020282859
253	0x3f51c798	0.8194518
254	0xbf6c205d	-0.9223688
255	0xbe66190c	-0.22470492

linears.0.bias f4 [103]
0	0x3edf9702	0.43669897
1	0x3d757fc1	0.05993629
2	0xbe08545f	-0.13313435
3	0x3d61cbeb	0.055126112
4	0x3cfeb6d9	0.031093048
5	0x3e9195d1	0.28434613
6	0x3dd5fb03	0.10448267
7	0xbb8dad71	-0.0043236543
8	0xbc500a41	-0.012697757
9	0xbe90d805	-0.2828981
10	0x3dabeb17	0.08394449
11	0x3cabc7b7	0.020969255
12	0xbb213421	-0.0024597722
13	0xbd348dbe	-0.04408049
14	0xbec55a62	-0.3854552
15	0x3e8cc14b	0.2749122
16	0xbda7dab7	-0.081960134
17	0xbe11043e	-0.14161775
18	0xbe1ed188	-0.15509617
19	0x3da1d62d	0.07902179
20	0xbea72486	-0.32645053
21	0xbe9f8731	-0.3115783
22	0x3e27c962	0.16385415
23	0x3de3ecb8	0.11129135
24	0x3ed5f77f	0.41790387
25	0x3b7dff21	0.0038756805
26	0xbd3d6ae8	-0.046244532
27	0x3ca63718	0.020289943
28	0x3df146bb	0.11781069
29	0x3d3bb836	0.045829974
30	0x3e142de3	0.1447063
31	0x3c9fc70c	0.019504093
32	0x3e32d7f6	0.17465195
33	0x3df23a93	0.118275784
34	0xbc265565	-0.010152196
35	0xbe88e27e	-0.267353
36	0xbea9a08e	-0.33130306
37	0x3db34fa2	0.08755423
38	0xbdbd54fd	-0.09244726
39	0x3eb704ef	0.35745952
40	0xbd072738	-0.032996386
41	0x3e259143	0.16168694
42	0xbe4ff834	-0.20309526
43	0x3d7de73a	0.061988093
44	0xbe711d81	-0.23546411
45	0x3de90d56	0.11379497
46	0x3df185c4	0.11793092
47	0xbc7f2011	-0.01557161
48	0xbce6a557	-0.028155012
49	0x3c96371b	0.018336823
50	0xbc210083	-0.009826782
51	0x3e14858e	0.14504072
52	0xbe41e773	-0.18935947
53	0xbd4a1d26	-0.049344204
54	0xbe60f7d4	-0.21969539
55	0xbe759fff	-0.23986815
56	0x3c205760	0.009786457
57	0xbe330651	-0.17482878
58	0xbbbf146d	-0.0058312924
59	0xbdcb587d	-0.09928987
60	0xbda7af15	-0.08187691
61	0x3dc613e2	0.09671761
62	0xbf098b8a	-0.53728545
63	0xbd915430	-0.070961356
64	0x3df02d55	0.117273964
65	0x3c2b0b20	0.010439664
66	0x3d8ae3df	0.06781744
67	0x3d45328b	0.048143905
68	0xbdc049d9	-0.09389085
69	0x3d823a35	0.06358758
70	0x3dc88612	0.09791197
71	0x3c6abbf5	0.014327039
72	0xbe14a1da	-0.14514866
73	0xbd026a89	-0.03183988
74	0xbce98c8a	-0.028509397
75	0x3d95db3f	0.073172085
76	0xbe028dc0	-0.12749386
77	0x3e61c74e	0.22048685
78	0x3dcebd67	0.100947194
79	0xb86b4a6f	-5.6097688e-05
80	0x3d8bdb0c	0.06828889
81	0x3c10561e	0.008809594
82	0x3dca2940	0.09871149
83	0x3da89544	0.08231595
84	0xbbe12f21	-0.0068720733
85	0xbe545bfe	-0.20738217
86	0x3df2f65e	0.11863397
87	0x3e5e0b86	0.21684083
88	0xbe783129	-0.24237503
89	0x3d82a4e4	0.06379107
90	0x3e1523f9	0.14564504
91	0x3e49e1a1	0.19714977
92	0xbe8b2de5	-0.27183452
93	0xbcf843f3	-0.030305838
94	0x3e31d7f2	0.17367533
95	0x3de39bcc	0.111137
96	0x3e1123cc	0.14173812
97	0xbe108f77	-0.14117227
98	0x3e05daa3	0.13071685
99	0x3dfd0959	0.123552985
100	0xbd4f6a85	-0.050638694
101	0xbbfd1f1d	-0.0077246563
102	0x3e5b46c2	0.2141371

linears.2.weight f4 [14, 103]
0	0xbe59abd5	-0.21256955
1	0x4020fe0d	2.515506
2	0x3fd7bacd	1.6853882
3	0x3f118166	0.5683807
4	0x3fc98edd	1.5746723
5	0xbfa81e0b	-1.3134168
6	0x3e12e809	0.14346327
7	0x3d46117c	0.04835652
8	0x404eac4a	3.2292657
9	0x3f4af89b	0.7928559
10	0xbfaa3926	-1.329869
11	0xbf166346	-0.5874523
12	0xbeebb8ab	-0.46039328
13	0xbe4aeb1d	-0.19816251
14	0x3d61757c	0.055043682
15	0x3fcac18c	1.5840316
16	0x3f16fef5	0.58982784
17	0x3fcf2713	1.61838
18	0x3f0da79c	0.55333877
19	0xbf2ce6ce	-0.6753968
20	0xc06ac255	-3.668111
21	0xbfbc0b5c	-1.4690967
22	0xc040f1cf	-3.0147588
23	0x3fdda04d	1.7314545
24	0xbf89acbd	-1.075584
25	0xbf1b9e6c	-0.6078861
26	0xbf66de36	-0.90182817
27	0x403c6814	2.9438524
28	0xbeec9c62	-0.4621306
29	0x404d7c06	3.2106948
30	0x3f3fe961	0.7496548
31	0xbff886a3	-1.9416088
32	0xc02ac2d6	-2.6681418
33	0x404690bb	3.1025836
34	0x3fa8c535	1.3185183
35	0xbe462f85	-0.19354065
36	0x4049450d	3.1448395
37	0x40247ca5	2.5701077
38	0xbf558d5d	-0.8341883
39	0x3f86e8bf	1.0539778
40	0xc00163aa	-2.021708
41	0x3fd69c40	1.6766434
42	0x3eefbc11	0.4682317
43	0xbe5b4be5	-0.2141567
44	0xc030966a	-2.7591805
45	0xbf81bc3d	-1.0135571
46	0x3fcbb36b	1.5914129
47	0x3fa6c18f	1.3027819
48	0x3f377313	0.71659964
49	0x3f87df79	1.0615073
50	0xbfadd1da	-1.3579667
51	0xbf9b3c7c	-1.2127833
52	0xc044ffbc	-3.0781088
53	0x40129fde	2.2910075
54	0x40689088	3.6338215
55	0xbf846c94	-1.0345635
56	0x3f89d485	1.0767981
57	0x3fd5a039	1.6689521
58	0xc0900cb0	-4.501549
59	0xbf832635	-1.0246035
60	0xbffdda0b	-1.9832166
61	0x3f8cb770	1.0993481
62	0xc000135c	-2.0011816
63	0x400baf39	2.1825697
64	0xbf1d0348	-0.6133313
65	0x3f926295	1.1436335
66	0xc050de98	-3.263586
67	0xbe9fb6f1	-0.3119426
68	0xbefdda4a	-0.49580604
69	0xbfc7866b	-1.5587896
70	0xc03bf24f	-2.9366643
71	0x3eb192df	0.34682366
72	0xc0716b02	-3.7721562
73	0xbfc68575	-1.5509478
74	0x4010f78f	2.2651098
75	0x3e09d168	0.13458788
76	0xc0131ee0	-2.2987595
77	0xbdae986d	-0.08525167
78	0xbefaf426	-0.49014395
79	0x401149f8	2.2701397
80	0x3e81272e	0.25225204
81	0x403be815	2.9360402
82	0xc017edfb	-2.3739002
83	0xbfd2306b	-1.6421026
84	0xbfe032c2	-1.751549
85	0x3fa33bfb	1.275268
86	0xc05b2f04	-3.4247446
87	0x3f0e9491	0.55695444
88	0xbf9b4bb4	-1.2132478
89	0xbec15b18	-0.37764812
90	0x3fc5e82f	1.5461482
91	0x3faefc56	1.3670757
92	0x40577ee9	3.367121
93	0xc0370e61	-2.8602526
94	0x403078c8	2.757372
95	0xbff4c09f	-1.9121283
96	0x3f208965	0.6270965
97	0x3f48ff47	0.7851452
98	0x3f480b0f	0.78141874
99	0xc0069c01	-2.1032717
100	0xbff9bef8	-1.9511404
101	0xbfbbd4c5	-1.4674307
102	0xc04c8755	-3.19576
103	0x3efe0d5a	0.4961956
104	0x40082a72	2.1275907
105	0x401db491	2.464146
106	0x3fb8872a	1.4416249
107	0xbfb32e8c	-1.399858
108	0x3e40e881	0.18838693
109	0x3ef0a715	0.47002473
110	0xc0576010	-3.3652382
111	0x3fba72aa	1.4566243
112	0x3f83c51e	1.029453
113	0x401dd9b7	2.4664133
114	0xbfe73df6	-1.8065784
115	0xc00d1c62	-2.2048573
116	0x3f978ecf	1.1840457
117	0xbd53cdf1	-0.051710073
118	0xbd9184fb	-0.07105442
119	0xbfd721b8	-1.6807165
120	0x4065650f	3.5842931
121	0x3fc97f97	1.5742062
122	0xbdc54611	-0.09632505
123	0xc01d269e	-2.455482
124	0xbf2ba17f	-0.670433
125	0xc045300e	-3.081058
126	0x40106886	2.2563796
127	0xc049345d	-3.143821
128	0x3f15769c	0.5838411
129	0x3e49e2a4	0.19715363
130	0x4012c68a	2.2933679
131	0xbdc44c6f	-0.09584891
132	0x4092fc17	4.5932727
133	0xc005aa01	-2.0885012
134	0xc017d72e	-2.3725085
135	0xc03c7b97	-2.9450433
136	0x3ff21229	1.8911792
137	0x404da675	3.2132847
138	0x3f30c06f	0.6904363
139	0x400414f1	2.0637782
140	0x3e188a13	0.14896421
141	0xbe7179dd	-0.23581643
142	0x3fd67b57	1.675639
143	0xbf7cf8b2	-0.9881698
144	0x400281a6	2.039163
145	0x4044c798	3.0746822
146	0xc01273b1	-2.2883112
147	0xc05ec88a	-3.48099
148	0xbf04505b	-0.5168511
149	0x3fbc8d77	1.4730672
150	0xbf18aa57	-0.5963492
151	0x400c85a7	2.1956575
152	0x3f7186d8	0.9434638
153	0xbfd9b040	-1.7006912
154	0xbfab1d3f	-1.33683
155	0xbf69f1fa	-0.9138485
156	0xbe1c92e4	-0.1529041
157	0x406d4463	3.707299
158	0x3f3ea308	0.74467516
159	0x4020f335	2.5148442
160	0x3f489ebb	0.78367203
161	0xbf35590a	-0.7083899
162	0x3ffb8a00	1.9651489
163	0x3e45b540	0.19307423
164	0x40318a97	2.7740839
165	0xc06e8b78	-3.7272625
166	0xc0173437	-2.362562
167	0xbeb4f87f	-0.35345837
168	0x3ef0694f	0.46955344
169	0xc00ad5a6	-2.16929
170	0x3ffcba2a	1.9744313
171	0xc095e1c1	-4.683808
172	0xc01d7ebc	-2.4608603
173	0xc028057f	-2.6253355
174	0x3f2b7e4c	0.6698959
175	0xc000e51b	-2.0139835
176	0xbf35e986	-0.71059453
177	0xbfa251d6	-1.2681224
178	0x3f7d4a48	0.9894147
179	0xc024b0d4	-2.5732927
180	0x40102389	2.252169
181	0xc000b4fc	-2.0110464
182	0x40360f59	2.8446867
183	0xbf3bf4c9	-0.7342039
184	0x403effc4	2.9843607
185	0xc047ad17	-3.1199396
186	0xbffbbd31	-1.9667112
187	0xbf7dc7d6	-0.9913305
188	0x40476382	3.1154485
189	0xbffb1661	-1.9616205
190	0x3ed89138	0.42298293
191	0xbe40ac14	-0.18815643
192	0x3f2ad832	0.6673614
193	0x402265a5	2.537454
194	0xbffe9344	-1.9888692
195	0x40502d5b	3.2527683
196	0xbfe0c504	-1.7560124
197	0x400acc3b	2.1687152
198	0x3ea26941	0.31720927
199	0x3f460318	0.7734847
200	0x3f3f3074	0.7468331
201	0x3fe609ad	1.7971703
202	0xbfa6cbad	-1.3030907
203	0xc0747f87	-3.8202837
204	0xc0499915	-3.1499684
205	0xc04b61d6	-3.1778464
206	0x3f77baad	0.9676922
207	0xbe9c2825	-0.30499378
208	0x3f8732c8	1.0562372
209	0x3e865be1	0.26241973
210	0xc0856f61	-4.169846
211	0x3ec93906	0.39301318
212	0xbf81928f	-1.0122851
213	0xbf01d2dd	-0.50712377
214	0x3e98c12e	0.29834884
215	0x3f3bd9d3	0.7337925
216	0x3fc3cfc5	1.5297781
217	0xc0193f41	-2.3944857
218	0xbfb6a1b0	-1.4268093
219	0x403b70a6	2.9287505
220	0x3f948a7e	1.1604764
221	0xbfe06a04	-1.7532353
222	0x3f00c906	0.5030674
223	0x4007d79c	2.1225348
224	0xbfb1de6c	-1.3896003
225	0xbf331c70	-0.6996527
226	0xc03f22c2	-2.9864964
227	0xbfad14b1	-1.352194
228	0x3f0d9d32	0.55317986
229	0x3fd08017	1.628909
230	0xbfb566d4	-1.4172006
231	0x3fcc1df3	1.594664
232	0xbebf911f	-0.37415406
233	0xbef0d2cd	-0.47035828
234	0xbf487a53	-0.7831165
235	0x3f5ec1e1	0.87014586
236	0xc099ed5a	-4.8102236
237	0x3f9f49c7	1.244439
238	0x3e8605fc	0.2617644
239	0x3fff8f38	1.9965582
240	0x40352f07	2.8309953
241	0x3f22f80a	0.6365973
242	0xbfe5a965	-1.794232
243	0xbff500cb	-1.9140867
244	0xbe8795a3	-0.2648135
245	0xbe41c107	-0.1892129
246	0x3f180beb	0.59393185
247	0x3f9351a5	1.1509291
248	0x405f734c	3.4914122
249	0x3f33d49a	0.7024628
250	0xbfd16a89	-1.6360637
251	0x401f3fcd	2.488269
252	0x3f7ca06a	0.9868227
253	0x3f9f452a	1.2442982
254	0x406fac9e	3.7449107
255	0xc04c2974	-3.19003

linears.2.bias f4 [14]
0	0xbd7f79a0	-0.06237185
1	0xbcf5567e	-0.02994847
2	0x3d6a5bd2	0.057216473
3	0x3f118f5b	0.5685937
4	0x3f38b2bb	0.7214772
5	0x3f7d65af	0.9898328
6	0x3ebb7e99	0.36620024
7	0x3f473e8c	0.77829814
8	0x3f0f05d7	0.55868286
9	0x3f57b47e	0.84259784
10	0x3f7d283a	0.98889506
11	0xbe8e47ac	-0.27789056
12	0xbf111c7f	-0.56684107
13	0xbd43a8fe	-0.047768585
