model/Multi/3layers_ImCLEF07A.pt (torch_old, 31717 bytes, 2 tensors)

linears.0.weight f4 [96, 80]
-0.029704884 -0.507459 0.038594157 -0.5040598 0.47731593 -0.49949598 0.57730407 0.044109643
-0.3441739 0.21385454 -0.19015318 0.34306222 -0.32371116 0.24560097 -0.048576668 -0.12991244
-0.54803276 -0.2688585 0.008528948 0.25686154 0.086129405 0.25143093 0.03783071 0.0632616
0.187943 -0.030203858 -0.3780204 0.15823956 -0.05779288 -0.17541008 -0.24779838 -0.1507341
-0.114441976 0.3177242 -0.05233902 -0.054170273 -0.13874386 0.03128983 -0.041200317 0.30690268
0.14014545 -0.12215198 -0.102808796 -0.098743044 0.10245999 0.06092593 0.055782802 0.31792334
-0.00024556345 0.1344697 0.16928603 0.1140615 0.10220843 0.28837383 -0.2552766 0.14437027
-0.023265868 0.04922623 0.037760954 -0.17571612 -0.307298 -0.1406176 -0.19078597 0.27060905
0.052926805 -0.042576514 0.18908557 0.27594805 0.14903246 0.143203 0.10462752 -0.03642334
0.14694567 0.05243859 0.019989906 -0.17382821 -0.18627912 0.03795982 -0.11285732 0.19739307
0.35621455 -0.08010293 0.14766644 0.03342777 0.16402027 0.031073911 -0.23569766 0.19955012
0.049517687 0.36957178 -0.0014669511 -0.012165126 0.23249608 -0.094463564 0.21484233 -0.051181186
0.14904016 0.1621902 0.075110696 0.022150004 -0.09794368 0.03039913 -0.28922233 -0.1355209
-0.0445632 -0.079545304 0.096102774 0.08707748 0.2775423 -0.06146287 -0.19890305 0.023163432
0.16124348 -0.14550789 -0.0822812 -0.17544535 0.15124653 -0.0069253286 0.090364575 0.020214118
-0.05622972 0.14236765 0.020819398 0.10629155 -0.31411463 -0.16382952 0.05332532 0.12280572
0.13905422 -0.22037728 0.023657309 0.21654128 0.01502667 0.042992473 -0.09749193 -0.15606855
0.12412877 -0.10779836 0.030287445 -0.2454988 0.00015961577 0.13225599 0.138821 0.02658793
0.12801407 0.17676464 -0.13202283 0.23737065 0.14602943 -0.019850705 -0.22730064 -0.16169018
0.13401906 0.16692847 -0.12305805 -0.20289925 0.14651129 0.2192327 0.031910423 0.05681582
-0.07452287 -0.03735405 -0.2883121 -0.13461867 -0.06576365 0.025900364 0.079936236 -0.1698413
-0.05585589 0.28290945 -0.020164045 0.16083808 -0.11645798 -0.11453254 0.20727347 -0.05236125
0.1338288 -0.09020821 -0.3145123 0.02144038 -0.11353279 0.08530359 -0.16012767 0.1511863
0.06331221 0.1206426 0.018763684 -0.0704035 0.03676481 0.36226353 0.08965865 -0.16345814
0.07030312 -0.07951639 0.15577804 -0.095306896 0.17502406 0.14356692 -0.16575766 0.01361784
0.07516164 0.3235327 -0.19784355 0.08829105 0.16209967 0.019352918 -0.21293837 -0.21374777
-0.08703117 0.20152102 -0.0024150326 -0.28257814 0.04280105 -0.18769723 0.22504081 0.13191304
0.22886552 0.20982964 -0.1607965 0.030677874 0.02362309 0.025734544 -0.022530377 0.010815174
0.031027844 0.19164105 0.076830365 -0.09509378 -0.033873305 -0.089119375 0.17865613 -0.113754936
-0.07427287 -0.067329355 0.13795102 -0.017192595 0.16142143 0.0421108 -0.017044695 -0.008721333
-0.21949634 0.5519512 0.2614945 0.22692293 0.22057424 -0.016098259 -0.18995954 -0.07263865
0.23415178 -0.6776977 -0.25589147 -0.019995296 0.10838303 0.13045752 -0.349805 0.157113
00000000: a857 f3bc d5e8 01bf e814 1e3d 100a 01bf
00000010: c162 f43e f0bd ffbe 33ca 133f 50ac 343d
00000020: 9037 b0be affc 5a3e 84b7 42be daa5 af3e
00000030: 78bd a5be d27e 7b3e 54f8 46bd c407 05be
00000040: e04b 0cbf d2a7 89be 00bd 0b3c 5b83 833e
00000050: 9d64 b03d 8ebb 803e 60f4 1a3d 4c8f 813d
00000060: 2174 403e 156e f7bc e48b c1be 8d09 223e
00000070: 3ab8 6cbd b39e 33be dcbe 7dbe 0a5a 1abe
00000080: 8e60 eabd bfac a23e 7161 56bd a6e1 5dbd
00000090: df12 0ebe c429 003d aac1 28bd 5922 9d3e
000000a0: 4a82 0f3e d12a fabd 6b8d d2bd cb39 cabd
000000b0: 8bd6 d13d 788d 793d 827c 643d d9c6 a23e
000000c0: f8be 80b9 6db2 093e 5159 2d3e 1399 e93d
000000d0: a752 d13d bca5 933e 9db3 82be cdd5 133e
000000e0: 1098 bebc 71a1 493d 3bab 1a3d edee 33be
000000f0: 2a56 9dbe 0ffe 0fbe 665d 43be 458d 8a3e
00000100: c7c9 583d b664 2ebd a69f 413e 1049 8d3e
00000110: f79b 183e cfa3 123e f446 d63d a430 15bd
00000120: ed78 163e d9c9 563d dfc1 a33c 0600 32be
00000130: f4bf 3ebe c27b 1b3d bd21 e7bd 6921 4a3e
00000140: c161 b63e 010d a4bd df35 173e 8feb 083d
00000150: eef4 273e b78e fe3c ba5a 71be de56 4c3e
00000160: 0fd3 4a3d 8338 bd3e b646 c0ba 3d50 47bc
00000170: 7413 6e3e 1d76 c1bd a1ff 5b3e 5da3 51bd
00000180: fc9d 183e 3015 263e a3d3 993d ed73 b53c
00000190: b296 c8bd 9907 f93c f314 94be fec5 0abe
000001a0: e787 36bd a6e8 a2bd 88d1 c43d ae55 b23d
000001b0: 061a 8e3e 7ec0 7bbd 3ead 4bbe 3dc1 bd3c
000001c0: 031d 253e 0500 15be 0c83 a8bd f2a7 33be
000001d0: 5fe0 1a3e deed e2bb 1011 b93d 1498 a53c
000001e0: 2351 66bd d3c8 113e 718d aa3c 62af d93d
000001f0: a2d3 a0be edc2 27be a76b 5a3d 9181 fb3d
00000200: 3b64 0e3e 95aa 61be f9cc c13c ffbc 5d3e
00000210: 6c32 763c e018 303d d9a9 c7bd 6fd0 1fbe
00000220: 3937 fe3d 63c5 dcbd 601d f83c 0a64 7bbe
00000230: 885e 2739 1d6e 073e 1827 0e3e eece d93c
00000240: 1f16 033e ca01 353e fe30 07be 4b11 733e
00000250: bd88 153e f29d a2bc 80c1 68be 1c92 25be
00000260: 4b3c 093e 4cef 2a3e dc05 fcbd d2c4 4fbe
00000270: 0e07 163e 897e 603e 81b4 023d b5b7 683d
00000280: 729f 98bd 8f00 19bd a59d 93be 7ad9 09be
00000290: 18af 86bd 002d d43c 9cb5 a33d e1ea 2dbe
000002a0: 25c9 64bd 82d9 903e 112f a5bc bdb2 243e
000002b0: 8581 eebd 0990 eabd 7f3f 543e c078 56bd
000002c0: 6b0a 093e 15bf b8bd c207 a1be bca3 af3c
000002d0: e183 e8bd a6b3 ae3d 82f8 23be 95d0 1a3e
000002e0: d5a9 813d 7813 f73d 4cb6 993c b62f 90bd
000002f0: b396 163d 9b7a b93e f49e b73d 9261 27be
00000300: 15fb 8f3d 7dd9 a2bd 4784 1f3e 4330 c3bd
00000310: 8239 333e 3503 133e 60bc 29be 5c1d 5f3c
00000320: 59ee 993d 14a6 a53e 8097 4abe f0d1 b43d
00000330: 75fd 253e 038a 9e3c 840c 5abe b2e0 5abe
00000340: 663d b2bd 875b 4e3e 8645 1ebb 15ae 90be
00000350: 2750 2f3d b433 40be 1971 663e 3614 073e
00000360: b95b 6a3e 95dd 563e d6a7 24be 2a50 fb3c
00000370: 3685 c13c 40d1 d23c a091 b8bc 2132 313c
00000380: 1b2e fe3c 8d3d 443e 3d59 9d3d 87c0 c2bd
00000390: bcbe 0abd 3884 b6bd a2f1 363e 59f8 e8bd
000003a0: 601c 98bd f9e3 89bd 0843 0d3e 7cd7 8cbc
000003b0: a94b 253e 607c 2c3d 51a1 8bbc ece3 0ebc
000003c0: a6c3 60be ad4c 0d3f 9be2 853e 7c5e 683e
000003d0: 37de 613e 7fe0 83bc c184 42be 93c3 94bd
000003e0: 7cc5 6f3e 997d 2dbf 3504 83be 2dcd a3bc
000003f0: ecf7 dd3d a896 053e a419 b3be 3be2 203e

linears.0.bias f4 [96]
-6.5032744 -7.202701 0.057527363 -8.416193 -0.24096084 -10.718607 -12.780019 1.2017769
-9.837997 -10.141375 -9.931303 -9.406666 -10.909806 -10.583426 -10.993192 -4.319946
-4.1163883 -7.371596 -7.7648597 -10.629753 -10.980031 -14.81053 -11.804685 -11.864388
-8.571483 -9.390971 -9.250729 -2.0454133 -2.8901784 -2.3971598 -7.1549654 -6.960842
-9.326067 -7.8864756 -9.227545 -8.264763 -3.3387067 -6.198137 -7.5118446 -5.1328845
-5.497852 -3.8195124 -6.4469576 -4.888629 -4.4762273 -5.3247643 -2.6467247 -3.045992
-4.2810163 -5.7035594 -8.517968 -8.719924 -11.846422 -11.8399725 -6.1711287 -11.235851
-13.622984 -9.738882 -9.345817 -2.6020517 -2.4333756 -1.6341459 -1.563343 -11.977754
-11.835065 -12.212588 -11.885841 -12.665407 -12.65154 -3.456853 -5.863474 -5.566173
-6.30155 -3.410797 -10.281892 -9.575629 -7.6815224 -8.959518 -8.4955845 -9.095389
-6.752577 -8.687076 -7.9558506 -10.077304 0.14121695 -1.1068345 -4.1236224 -3.7545617
-1.9170718 -1.6603107 -5.2284026 -3.6700335 -2.1526108 -3.662421 -6.413598 -7.241848
00000000: d31a d0c0 877c e6c0 d0a1 6b3d baa8 06c1
00000010: 70be 76be 6a7f 2bc1 f57a 4cc1 d3d3 993f
00000020: 7068 1dc1 1243 22c1 9ee6 1ec1 b481 16c1
00000030: 918e 2ec1 b755 29c1 1de4 2fc1 ff3c 8ac0
00000040: 74b9 83c0 1de4 ebc0 bb79 f8c0 7813 2ac1
00000050: 35ae 2fc1 eef7 6cc1 fddf 3cc1 89d4 3dc1
00000060: cb24 09c1 6b41 16c1 fc02 14c1 0de8 02c0
00000070: aff8 38c0 116b 19c0 7af5 e4c0 38bf dec0
00000080: 9237 15c1 025e fcc0 06a4 13c1 783c 04c1
00000090: 5fad 55c0 2357 c6c0 0861 f0c0 9740 a4c0
000000a0: 67ee afc0 e472 74c0 7a4d cec0 a66f 9cc0
000000b0: 413d 8fc0 7864 aac0 f063 29c0 88f1 42c0
000000c0: 16fe 88c0 8f83 b6c0 9949 08c1 cf84 0bc1
000000d0: f28a 3dc1 8770 3dc1 e379 c5c0 0cc6 33c1
000000e0: bef7 59c1 76d2 1bc1 7788 15c1 0488 26c0
000000f0: 6dbc 1bc0 b12b d1bf a01b c8bf e1a4 3fc1
00000100: 6d5c 3dc1 c366 43c1 682c 3ec1 82a5 4ac1
00000110: b56c 4ac1 143d 5dc0 94a1 bbc0 171e b2c0
00000120: 4ca6 c9c0 804a 5ac0 a182 24c1 c735 19c1
00000130: 08cf f5c0 305a 0fc1 eaed 07c1 b786 11c1
00000140: 1c15 d8c0 43fe 0ac1 5496 fec0 a33c 21c1
00000150: 2d9b 103e c1ac 8dbf b7f4 83c0 bd4a 70c0
00000160: 9c62 f5bf 1085 d4bf 134f a7c0 d4e1 6ac0
00000170: 60c4 09c0 1b65 6ac0 323c cdc0 38bd e7c0
