model/Multi/3layers.pt (torch_old, 49574 bytes, 4 tensors)

linears.0.weight f4 [103, 103]
-0.50322324 -0.31409395 0.06181739 -0.16886818 -0.021013886 -0.06133619 0.5709892 0.34361383
0.27401862 -0.25795785 -0.58153397 -0.17248023 -0.050605495 -0.14458522 0.003960597 -0.4539983
0.11427193 0.5377863 0.23471488 -0.4759753 -0.4967946 -0.10860441 0.12486852 0.07859867
0.086451605 0.19826193 0.14494903 0.039970376 -0.00048633112 -0.29297677 -0.103513844 0.27778965
0.32148334 0.3657233 -0.3673632 -0.63100183 -0.078585036 -0.31281817 0.4480802 0.401103
-0.75448084 -0.38110903 -0.31954837 -0.04699952 0.14138049 -0.33559597 -0.17714477 -0.18275659
0.11923333 0.268177 0.4374974 0.28066275 0.28360966 -0.34403303 0.09559481 -0.06473266
-0.040156856 0.30240113 -0.04357759 0.06687179 0.18809587 0.20874327 0.31383607 0.48898932
-0.071954794 -0.46264672 -0.43853176 -0.111194804 -0.042027783 -0.037620917 0.38622698 0.10801048
0.14508533 0.24149789 0.13453297 -0.23459908 -0.19315909 -0.10219683 -0.5392344 0.49307927
-0.50909734 -0.63784766 -0.03717808 0.38706443 -0.06190049 -0.6692743 -0.018406572 -0.09912219
-0.31590444 0.3602456 0.05735373 -0.17316712 -0.07425504 0.0021242793 0.023205068 -0.1454782
-0.14390838 -0.21745281 0.51096845 0.31717926 -0.15996298 -0.06407942 0.40101713 0.008779704
0.3375622 -0.27977186 -0.11003958 -0.19166312 -0.34205523 0.2798861 0.11161224 0.45570675
0.3179204 0.7919201 0.57298595 0.2944204 0.026200956 -0.19189316 0.17975533 0.5755921
0.5268516 -0.76301 -0.5825457 -0.02540713 -0.4513109 0.25254333 0.15542904 -0.28932375
-0.27208146 0.06397325 0.25880465 -0.4846276 -0.1539257 -0.7399402 -0.13776529 -0.16014314
0.3137658 1.3190573 -0.13845822 0.1705479 -0.066270694 -0.19463512 0.17829609 0.09644163
0.1406751 0.23071998 -0.28835645 0.29821765 -0.16130757 0.014975593 0.37542164 -0.019211693
0.023304414 0.011109145 0.18002431 -0.13834925 0.12460951 0.4488506 0.0730322 -0.2436686
0.6130642 -0.40461233 -0.4895384 0.09604946 -0.019637177 0.4355346 -0.02551475 -0.29557785
-0.7286263 -0.1600254 0.3782138 -0.038367976 0.3360653 -0.2636963 -0.5973973 -0.22455841
0.45578063 0.47439575 -0.41032347 0.65152746 -0.7577201 -0.07057924 -0.7032589 -0.21207628
0.8008902 0.45214343 0.014664469 0.5394579 -0.17602944 -0.10563782 -1.0327499 0.322802
-0.22633837 0.5622314 0.12998624 0.53569657 0.072304845 0.17086747 0.43374705 0.098661266
-0.31304324 -0.680374 -0.08164655 0.65663826 0.47608766 -0.5608726 0.3939906 -0.19651984
0.4493795 0.2031298 0.04032359 -0.07278812 -0.41624156 0.029546037 -0.1422023 0.70895135
-0.0396409 0.20933606 0.109443404 0.5728111 0.11066439 0.35249668 0.18767953 -0.2076956
-0.50915784 0.5141141 0.07713642 0.22796325 0.57148755 0.3493334 -0.09305342 -0.13272959
0.5067201 -0.11547663 -0.03041999 -0.44752455 -0.4606287 0.5547934 0.22266793 -0.07750292
-0.14424728 0.6803552 0.0891379 -0.1741024 -0.027395759 -0.1356018 -0.45014045 0.19655399
-0.0055239634 -0.40210074 0.09118216 0.041454684 0.106427155 0.011011384 -0.2674628 -0.42198887
00000000: 3dd3 00bf ecd0 a0be 3b34 7d3d c8eb 2cbe
00000010: 5025 acbc a83b 7bbd 592c 123f 27ee af3e
00000020: 2b4c 8c3e 0d13 84be 69df 14bf a89e 30be
00000030: b547 4fbd 260e 14be e5c7 813b 7772 e8be
00000040: 6707 ea3d 5dac 093f 1959 703e 09b3 f3be
00000050: dd5b febe fd6b debd 11bb ff3d 57f8 a03d
00000060: 8a0d b13d 2d05 4b3e 856d 143e fab7 233d
00000070: 42fa feb9 0d01 96be 11ff d3bd 723a 8e3e
00000080: 7799 a43e 1640 bb3e 0817 bcbe 5689 21bf
00000090: 31f1 a0bd b429 a0be c56a e53e 5f5d cd3e
000000a0: a825 41bf b920 c3be d89b a3be 9282 40bd
000000b0: 0cc6 103e 3cd3 abbe 7065 35be 8b24 3bbe
000000c0: 9b30 f43d 7f4e 893e a9ff df3e 07b3 8f3e
000000d0: 4935 913e 1925 b0be 36c7 c33d 8f92 84bd
000000e0: 847b 24bd 52d4 9a3e 6a7e 32bd 14f4 883d
000000f0: 349c 403e ccc0 553e 1faf a03e cf5c fa3e
00000100: 095d 93bd 08e0 ecbe 3c87 e0be 1aba e3bd
00000110: 5325 2cbd 6418 1abd 8bbf c53e 9934 dd3d
00000120: 4091 143e 394b 773e 03c3 093e be3a 70be
00000130: 7fcb 45be 924c d1bd 440b 0abf e374 fc3e
00000140: 3454 02bf fc49 23bf 0b48 18bd 4f2d c63e
00000150: 5e8b 7dbd 8f55 2bbf 61c9 96bc 9300 cbbd
00000160: 3abe a1be 1c72 b83e bfeb 6a3d b952 31be
00000170: 0713 98bd 7e37 0b3b 8e18 be3c 3df8 14be
00000180: b85c 13be f3ab 5ebe d4ce 023f 5265 a23e
00000190: 56cd 23be 123c 83bd 1e52 cd3e bfd8 0f3c
000001a0: f4d4 ac3e 423e 8fbe 6e5c e1bd 5643 44be
000001b0: dd21 afbe 3b4d 8f3e f594 e43d 6552 e93e
000001c0: 76c6 a23e 47bb 4a3f 35af 123f 45be 963e
000001d0: 63a3 d63c a47f 44be c811 383e 015a 133f
000001e0: bfdf 063f a054 43bf b721 15bf 9d22 d0bc
000001f0: 3912 e7be 5c4d 813e ca28 1f3e 3e22 94be
00000200: 434e 8bbe 6804 833d 0b82 843e 1c21 f8be
00000210: b39e 1dbe b96c 3dbf 5812 0dbe 90fc 23be
00000220: e9a5 a03e dfd6 a83f fec7 0dbe 1ca4 2e3e
00000230: eeb8 87bd 6e4e 47be 4093 363e 3083 c53d
00000240: 220d 103e dc41 6c3e 75a3 93be fcaf 983e
00000250: d02d 25be 315c 753c 4437 c03e d761 9dbc
00000260: e6e8 be3c 2203 363c 4b58 383e 6dab 0dbe
00000270: 4533 ff3d bfcf e53e e891 953d 4384 79be
00000280: c7f1 1c3f 5929 cfbe c7a4 fabe 94b5 c43d
00000290: 25de a0bc 64fe de3e 4f04 d1bc fb55 97be
000002a0: 4187 3abf b3dd 23be 3da5 c13e bd27 1dbd
000002b0: c010 ac3e 3403 87be 08ef 18bf a4f2 65be
000002c0: 145c e93e 00e4 f23e eb15 d2be 81ca 263f
000002d0: f2f9 41bf d98b 90bd c608 34bf 862a 59be
000002e0: 2407 4d3f 587f e73e 3e43 703c ea19 0a3f
000002f0: 1041 34be a458 d8bd 2631 84bf 4e46 a53e
00000300: 3fc5 67be 66ee 0f3f 1d1b 053e 6923 093f
00000310: 9014 943d e2f7 2e3e 1814 de3e eb0e ca3d
00000320: 3447 a0be fe2c 2ebf 4e36 a7bd 7219 283f
00000330: c3c1 f33e 5995 0fbf 23b9 c93e 7f3c 49be
00000340: 1215 e63e 4201 503e 592a 253d f011 95bd
00000350: 9d1d d5be 880a f23c 7b9d 11be d67d 353f
00000360: 7f5e 22bd 315c 563e dd23 e03d c0a3 123f
00000370: 03a4 e23d 727a b43e 102f 403e 28ae 54be
00000380: 2b58 02bf fb9c 033f b3f9 9d3d 336f 693e
00000390: 024d 123f d4db b23e cb92 bebd 44ea 07be
000003a0: 69b8 013f 037f ecbd 5833 f9bc f021 e5be
000003b0: 86d7 ebbe f106 0e3f 1003 643e dab9 9ebd
000003c0: 8fb5 13be c22b 2e3f ee8d b63d e647 32be
000003d0: 126d e0bc 33db 0abe cf78 e6be 7345 493e
000003e0: 5d02 b5bb 26e0 cdbe b6bd ba3d 63cc 293d
000003f0: 7bf6 d93d 1869 343c e2f0 88be ed0e d8be

linears.0.bias f4 [103]
0.17368779 0.10400821 -0.19313419 0.15133773 0.09629318 0.10000057 0.04055372 0.18497774
0.20608793 0.15381064 0.07062184 0.13360609 0.22315273 0.27053577 0.12885566 0.022414053
0.059136298 -2.545734e-19 -0.12619802 0.09559999 0.041532747 -0.07526848 0.02424549 0.14489636
0.03163087 0.0570368 -0.057492554 -9.362095e-14 0.040435202 -0.015612287 -0.12604745 0.08641131
0.055468477 0.082068786 0.114276215 0.059472125 0.19225186 0.08571713 -0.15262862 0.0750739
0.029831672 0.07012503 0.12653846 0.029595023 0.080991656 0.09984323 0.05317064 0.02156859
-0.25396302 0.0854493 0.1410508 0.08354236 -0.0016025053 -0.06127425 0.112879224 0.09114585
0.14438918 -0.17600706 -0.032569688 0.0059133517 -0.06339307 -0.098300576 -0.09961503 -0.0008164161
0.07302925 0.04721708 0.034461338 -6.5968513e-20 0.36273405 -0.032903343 0.10700723 0.12115737
0.09867804 0.10334375 0.18252805 -0.02594768 -0.06900442 -0.052184183 0.05491829 -0.039913252
0.060381956 0.18983895 -0.100755684 0.008864858 0.00063345884 0.048603617 0.033708714 0.0015100506
-0.032068834 -0.039053574 -0.109425135 -0.038057998 0.11044345 -0.10995706 0.14371006 -3.264091e-11
0.1379629 0.070056155 -0.018392893 0.21687156 0.06635338 -0.07517074 0.16387223
00000000: 36db 313e 4202 d53d f8c4 45be 47f8 1a3e
00000010: 5c35 c53d 19cd cc3d a81b 263d ce6a 3d3e
00000020: b708 533e 8980 1d3e 2fa2 903d 09d0 083e
00000030: 2682 643e aa83 8a3e bdf2 033e ad9d b73c
00000040: e738 723d 0b46 96a0 0e3a 01be edc9 c33d
00000050: 3e1e 2a3d 5c26 9abd 7a9e c63c b65f 143e
00000060: 5f8f 013d 6b9f 693d 507d 6bbd ced0 d2a9
00000070: 629f 253d aeca 7fbc 9512 01be 6af8 b03d
00000080: ea32 633d ae13 a83d a609 ea3d 0b99 733d
00000090: acdd 443e 768c af3d ad4a 1cbe 58c0 993d
000000a0: 8d61 f43c b69d 8f3d 4c93 013e 4371 f23c
000000b0: f4de a53d 9b7a cc3d 75c9 593d 9db0 b03c
000000c0: 7107 82be 0b00 af3d 9f6f 103e 4218 ab3d
000000d0: 280b d2ba b5fa 7abd 392d e73d adaa ba3d
000000e0: c2da 133e 323b 34be cb67 05bd cac4 c13b
000000f0: 3ad4 81bd d051 c9bd f702 ccbd c204 56ba
00000100: 5c90 953d b266 413d 5527 0d3d 85c3 9b9f
00000110: 47b8 b93e a8c5 06bd 9b26 db3d 5b21 f83d
00000120: b617 ca3d e3a5 d33d a2e8 3a3e 3b90 d4bc
00000130: 3052 8dbd 15bf 55bd 00f2 603d 147c 23bd
00000140: 1253 773d 2465 423e ff58 cebd e93d 113c
00000150: b40e 263a 9614 473d 2612 0a3d e4ec c53a
00000160: 9c5a 03bd a4f6 1fbd 491a e0bd b4e2 1bbd
00000170: 2d30 e23d 2b31 e1bd bb28 133e 668e 0fae
00000180: 2546 0d3e 9a79 8f3d b1ac 96bc 9413 5e3e
00000190: 48e4 873d 1ef3 99bd 1fce 273e

linears.2.weight f4 [14, 103]
1.6270034 0.89849627 0.72383076 -1.7899835 -0.5824207 1.1739446 0.505258 0.48107028
-1.3419083 -1.4305556 -1.039183 0.0142177865 -1.6741916 0.6851911 0.58315086 -0.7043421
-0.79342175 3.217e-41 -0.07100657 -0.81432444 1.0616853 -1.1754066 -0.037910793 -0.14164795
-0.87651134 1.110168 0.26025 -1.682624e-34 0.6726574 1.236047 0.77529114 1.496783
-1.2933323 -1.248089 1.4369494 1.5450901 -2.2165096 -0.5058889 -1.1600693 1.1287898
-1.0899785 0.53250855 -0.8639879 0.18754774 -0.052493986 1.5589954 0.9594687 0.5319486
-1.1516018 -0.8731145 -1.0828611 0.47233087 -0.47259519 -1.7160646 0.20424318 0.9094661
-0.14716339 -0.7853475 -0.74159575 0.5758843 0.8180143 1.3276873 -0.69925386 -0.8251244
-0.26735815 -1.7951568 -1.6283585 3.0443577e-21 -0.8717181 0.22731483 -2.0504127 0.51254815
-0.5001036 1.1216363 0.98777133 1.2614281 -1.107793 1.0520163 -1.5747788 0.12163919
0.39075187 0.8782319 -1.7184067 0.28113645 0.60118693 0.7228328 1.4954015 0.6101437
1.514592 -0.51759857 -0.8045452 0.85285527 -0.6506639 -1.1826038 -0.0148426015 5.1963e-41
0.17621075 -0.807029 0.91482776 -0.14562395 -0.5421861 -0.21953805 -0.7276755 1.0060337
1.9129387 0.5516135 -1.2910222 -0.32919282 0.47836494 -0.061078887 0.48713493 0.4833961
-0.74165326 -1.1254783 -1.8170167 -0.34074938 3.0388554e-05 -0.5956737 -0.77830356 -2.6036258
1.2701e-41 0.6786354 -0.6573145 0.9171568 -1.2161744 -0.35621765 -0.34573188 -0.32110384
1.458193 0.3676997 2.5850518e-29 1.405866 1.1383514 2.2498097 1.5482091 -0.9908282
-1.09387 1.6800187 1.1120738 -1.7157483 0.9518715 -0.87775683 1.5349497 -1.563084
-1.4943676 -2.0609593 1.2091486 0.049169973 0.88553786 0.8173559 0.75163734 -1.4229499
0.050005022 -1.7283944 0.7495983 -1.7997483 -1.1948406 -0.8887364 -1.5591161 0.10554503
-1.4165518 -2.1171403 0.61263895 1.2901461 1.8424144 -0.4754737 -0.26334864 0.3904697
0.42241535 -1.058934 5.2297844e-21 -0.44140106 -0.0738323 -1.5125122 0.3294434 -0.7218033
1.5958396 0.7451635 0.98522896 -0.91123235 1.0686467 -0.42637166 0.55663115 -0.17512332
0.5886192 -1.1315163 1.2204804 0.66114193 -0.1096496 1.9382417 0.5572613 0.769636
0.8312647 -0.87896496 0.89262 0.8274106 -1.9327196 -0.74117666 -4.6007086e-37 -0.7491852
0.019694779 0.27864507 0.073118724 -1.2039486 -0.9935116 0.9856947 -0.7008715 0.29190946
-0.9010455 -0.07912697 -1.2166772 -0.7778003 -1.3014098 -1.518686 1.2726281 -0.13761336
-0.094825186 -1.3337404 0.9963023 -0.86179024 -0.17527437 -0.0507789 -1.9228194 -6.7429e-41
0.67088157 -0.735608 -0.81852686 -0.57764703 0.8664863 1.1107354 0.25007707 1.6702621
-0.37736467 -8.335359e-37 0.8780639 1.6565243 1.7249365 1.2815548 0.7189323 0.9192314
-0.84772176 0.4763652 -0.09740634 0.35176805 0.4357432 0.35898826 0.8699682 -0.3452285
-1.8001732 -0.114339516 0.8913489 0.27077332 0.09376903 0.15840708 -0.10719709 1.995461
00000000: a641 d03f da03 663f f94c 393f 2e1e e5bf
00000010: 8619 15bf d143 963f 9758 013f d84e f63e
00000020: a7c3 abbf 721c b7bf f303 85bf b8f1 683c
00000030: e94b d6bf af68 2f3f 6049 153f c44f 34bf
00000040: b01d 4bbf ad59 0000 e46b 91bd 9177 50bf
00000050: 4ee5 873f b973 96bf 5948 1bbd 290c 11be
00000060: 0c63 60bf fc19 8e3f 7d3f 853e baa8 5f87
00000070: 4633 2c3f ca36 9e3f 7b79 463f 9696 bf3f
00000080: ea8b a5bf 61c1 9fbf f5ed b73f 83c5 c53f
00000090: 4bdb 0dc0 ef81 01bf 277d 94bf 2f7c 903f
000000a0: 6a84 8bbf 7b52 083f 502e 5dbf 840c 403e
000000b0: ef03 57bd 298d c73f be9f 753f c92d 083f
000000c0: b067 93bf 6f84 5fbf 319b 8abf 5ad5 f13e
000000d0: fff7 f1be 01a8 dbbf 2025 513e c5d2 683f
000000e0: 00b2 16be 890c 49bf 38d9 3dbf 276d 133f
000000f0: 6369 513f a8f1 a93f 4d02 33bf 5a3b 53bf
00000100: 2be3 88be b3c7 e5bf 0d6e d0bf 7106 661d
00000110: eb28 5fbf 38c5 683e f639 03c0 5b36 033f
00000120: ca06 00bf c791 8f3f 95de 7c3f 7a76 a13f
00000130: 29cc 8dbf 78a8 863f 5a92 c9bf f81d f93d
00000140: a110 c83e ced3 603f c0f4 dbbf 1ef1 8f3e
00000150: 63e7 193f 920b 393f 5169 bf3f 6132 1c3f
00000160: 27de c13f 5781 04bf adf6 4dbf b954 5a3f
00000170: e991 26bf 905f 97bf 622e 73bc da90 0000
00000180: 9770 343e 7499 4ebf 2732 6a3f 721e 15be
00000190: b5cc 0abf 95ce 60be f148 3abf b6c5 803f
000001a0: 2ddb f43f 8b36 0d3f 3740 a5bf f68b a8be
000001b0: 40ec f43e db2d 7abd c069 f93e b27f f73e
000001c0: fddc 3dbf ac0f 90bf 0194 e8bf b476 aebe
000001d0: ecea fe37 127e 18bf e73e 47bf cea1 26c0
000001e0: 6823 0000 0dbb 2d3f c345 28bf caca 6a3f
000001f0: 9aab 9bbf 2962 b6be c503 b1be b967 a4be
00000200: 11a6 ba3f 2343 bc3e e413 0310 6bf3 b33f
00000210: 80b5 913f e2fc 0f40 b72b c63f eba6 7dbf
00000220: ef03 8cbf da0a d73f 6f58 8e3f a49d dbbf
00000230: daad 733f acb4 60bf 3b79 c43f 2313 c8bf
00000240: 7047 bfbf c2e6 03c0 62c5 9a3f 7466 493d
00000250: 9cb2 623f 3c3e 513f 4e6b 403f 3923 b6bf
00000260: 11d2 4c3d 073c ddbf ade5 3f3f 275e e6bf
00000270: 89f0 98bf 3b84 63bf 1e91 c7bf fe27 d83d
00000280: 9251 b5bf 3a7f 07c0 e8d5 1c3f 8223 a53f
00000290: 3cd4 eb3f 4a71 f3be a2d5 86be a5eb c73e
000002a0: d346 d83e 268b 87bf 5f93 c51d 52ff e1be
000002b0: 6435 97bd 009a c1bf ceac a83e 1ac8 38bf
000002c0: 7944 cc3f 09c3 3e3f f737 7c3f 8646 69bf
000002d0: 6ac9 883f 634d dabe 617f 0e3f 8753 33be
000002e0: bfaf 163f 87d5 90bf b438 9c3f 9940 293f
000002f0: f88f e0bd 4e18 f83f ada8 0e3f dd06 453f
00000300: c3cd 543f d903 61bf bf82 643f 2ed1 533f
00000310: 5b63 f7bf c1bd 3dbf d38d 1c83 9aca 3fbf
00000320: f256 a13c 91aa 8e3e 45bf 953d fd1a 9abf
00000330: c756 7ebf 7d56 7c3f 516c 33bf 2875 953e
00000340: ebaa 66bf 520d a2bd 14bc 9bbf ec1d 47bf
00000350: 9994 a6bf 4e64 c2bf 7ae5 a23f 84ea 0cbe
00000360: b533 c2bd 01b8 aabf ab0d 7f3f 499e 5cbf
00000370: 207b 33be 89fd 4fbd f21e f6bf f7bb 0080
00000380: e5be 2b3f ce50 3cbf fa8a 51bf ade0 13bf
00000390: 0cd2 5d3f 942c 8e3f 1a0a 803e 26cb d53f
000003a0: f135 c1be 9cd1 8d83 ccc8 603f fd08 d43f
000003b0: b8ca dc3f fd09 a43f f20b 383f c052 6b3f
000003c0: 4b04 59bf 24e6 f33e fa7c c7bd f11a b43e
000003d0: bc19 df3e 4fcd b73e 3cb6 5e3f cac1 b0be
000003e0: 136c e6bf d62a eabd 712f 643f cda2 8a3e
000003f0: fa09 c03d 7735 223e 268a dbbd 446b ff3f

linears.2.bias f4 [14]
-0.024395194 -0.15451363 -0.1643257 -0.12166309 -0.13386329 0.37596425 0.070046864 0.29791644
-0.09881269 0.07720167 0.1402569 -0.045030512 -0.15286289 -0.7004556
00000000: 6ed8 c7bc d238 1ebe ff44 28be 802a f9bd
00000010: 7513 09be 637e c03e bb74 8f3d 8188 983e
00000020: 4f5e cabd e91b 9e3d 819f 0f3e ea71 38bd
00000030: 1788 1cbe 0f51 33bf
