model/Multi/3layers_sync.pt (torch_old, 1572 bytes, 2 tensors)

linears.0.weight f4 [15, 15]
00000000: 4d04 b041 0eea 4a41 a059 b640 01c2 ed3d
00000010: 3c57 64be 3f8f 12be 4494 b6bc 94c9 f7bd
00000020: 483f 1dbe 009c 9c3d 72d3 b2bd 7a66 043c
00000030: 7de5 2d3e 5c9a 99be 020a cf3c cae1 1241
00000040: ae83 8c41 3496 0d41 0d94 073d 6340 b13d
00000050: 5f65 2fbe fad3 ba3d a106 9f3d 4216 44be
00000060: 0700 603c acf9 bc3d a097 dbbd 7911 80be
00000070: c937 81be a096 db3d 3595 bb40 45d9 4841
00000080: f9e0 ac41 b4be 42bc 90cb 9abc c6d3 06be
00000090: 821b d23d 83ce 4a3e d1ef 52be e719 343e
000000a0: 0fdf 39bd da77 09be 9f4a 2d3e 5543 5fbd
000000b0: cf56 0dbe 0014 3ebe 436d 81be 6cf9 06be
000000c0: e37f b041 6682 4c41 d949 bc40 7c01 f1bc
000000d0: 5063 53be b534 4ebe 80cb 203e 5213 f4bd
000000e0: 30fd 8bbc 75c0 85be 5e08 773d 2a51 dc3d
000000f0: 63aa c9bd d872 21bd 0076 f2bc a6f9 0941
00000100: 772c 8a41 0d1b 0b41 068a 13bc 8648 0abd
00000110: a7a9 90bd 9e1a c43c ff1b 84be baf7 3bbd
00000120: 0a0e 0dbe cd02 833e 4a50 6c3c d437 9dbd
00000130: b361 af3d c0b3 873e 68d0 ab40 bcda 4041
00000140: 6678 a741 a962 ccbd d123 093e 94fa 9b3e
00000150: c0a0 0e3d 2ad8 a6be 7e03 0abe cd8a b43d
00000160: 5d71 a63e 17c5 4c3d 40aa fdbd c5a9 a33e
00000170: f4dd dd3d f52e c33d 787c 1d3e 97c3 523e
00000180: 653e ad41 d14c 4c41 e35e bc40 ae18 283d
00000190: 0e7a 34be 2c7b 8dbd f5bf 633e e1e1 04be
000001a0: 2b71 0a3e bfbd 0f3c 288b d93d 05b1 1e3d
000001b0: 75b1 04bd 688b 553e 9e38 cabd cc04 0841
000001c0: 9c5d 8841 cdbb 0d41 d7c6 8a3d 0b63 38bc
000001d0: bff1 a2bd 6437 5a3e d95c 11be 1802 45bc
000001e0: 5f20 5ebd e618 043e a9e2 413c 8d3d 73bd
000001f0: e0fc c53e 6e22 5dbd 8378 b740 1184 4f41
00000200: a58d af41 4340 d13d 09c0 db3c 48f8 6cbd
00000210: 8275 863e ac20 9ebd 8d56 dd3c fa17 70be
00000220: dd69 3b3d ebaf dfbc 7619 673e e6cf 0abe
00000230: dfbc 74be 5c9c 623e e6c5 153e ce79 853d
00000240: 690c b141 1f8b 4d41 50b6 bb40 fb8e 9e3e
00000250: c83d 6fbc f7c4 17bc 26cb 43bd 2996 913d
00000260: 996f a83e aab2 4ebd b4a2 3b3d fc69 3cbe
00000270: c6de 59bb df97 033e 8cc7 d13d cebd 1441
00000280: c068 8e41 a001 0f41 8e9e 313e 8da7 54bc
00000290: 3c2c cbbd dcff 2abe f5d6 e23d 70da de3e
000002a0: 0059 1dbe ce53 103e 3873 56be f054 1ebd
000002b0: 6c15 e3bd 2799 803d d88e bf40 b9ca 4941
000002c0: 9591 ac41 b73e e93d 188d 9dbe c19e c03d
000002d0: c883 7b3e afe4 09be 7a7a e5bc f476 aa3d
000002e0: ccff d93d 93d8 963d 0666 fe3e 0d2f 313d
000002f0: 2102 42be 3e83 18bd 8c6a 963e 96a6 183d
00000300: fac6 b041 900f 4941 d6b4 bf40 9239 963d
00000310: 2ed9 00bd 2b38 4d3d 7364 fc3d 2290 593e
00000320: 6105 393e c237 be3e 209a 2f3e 73b8 7dbe
00000330: 7814 83bc 2502 323e d7f6 60be b392 0941
00000340: 93d5 8941 b9f9 0c41 13ef 2ebb 4171 da3c
00000350: faec 5bbe 1fa2 8dbd 4eae 8bbd 4298 1ebe
00000360: 2edf 203e cbcd 20be 889c 04be 453d 82be
00000370: 0c58 a53e 34dc 37be 7458 ba40 ba69 4d41
00000380: b80e af41
22.0021 12.682142 5.6984406 0.11609269 -0.22298902 -0.14312457 -0.022287495 -0.12098995
-0.15356171 0.07646942 -0.08731736 0.008081073 0.16982074 -0.3000058 0.025273327 9.180124
17.564297 8.849171 0.033100177 0.08654859 -0.17128514 0.091224626 0.07764936 -0.19149116
0.0136718815 0.09227309 -0.107222795 -0.2501333 -0.25237873 0.10722089 5.8619637 12.553044
21.60985 -0.0118862875 -0.018895894 -0.13166723 0.10259153 0.1980534 -0.20599295 0.17588006
-0.04537874 -0.13424626 0.16922997 -0.054507572 -0.13802646 -0.18562317 -0.25278673 -0.13181084
22.062445 12.781836 5.8840146 -0.029419653 -0.20643353 -0.20137294 0.15702629 -0.119177476
-0.017088503 -0.26123396 0.060310714 0.10757668 -0.09846952 -0.039416164 -0.029597282 8.623449
17.271711 8.694104 -0.009005075 -0.03376057 -0.070636086 0.023938473 -0.2580261 -0.045890547
-0.13774887 0.25588074 0.014423439 -0.07676664 0.085635565 0.26504326 5.36919 12.053402
20.933788 -0.099797554 0.13392569 0.30464613 0.034821272 -0.32586795 -0.13477895 0.08815537
0.32508364 0.049992647 -0.12385988 0.3196546 0.1083335 0.09530441 0.15379512 0.20582424
21.655466 12.768754 5.886583 0.04103916 -0.17624685 -0.06908259 0.22241195 -0.12976791
0.13519733 0.008773266 0.10622245 0.038743038 -0.0323958 0.2085396 -0.0987408 8.501171
17.045708 8.85835 0.06776207 -0.011254082 -0.07956266 0.21310192 -0.14195575 -0.012024425
-0.05423009 0.12900123 0.011833825 -0.05938487 0.3866949 -0.053987913 5.733461 12.969743
21.944162 0.10217335 0.026824968 -0.057853967 0.26261526 -0.077210754 0.02701881 -0.23446646
0.045755256 -0.027305564 0.22568306 -0.1355587 -0.23900174 0.22129959 0.14626274 0.06517373
22.13106 12.846465 5.866005 0.3096846 -0.014602132 -0.009263269 -0.04780116 0.07108719
0.32897642 -0.050463356 0.045809463 -0.18399805 -0.0033244356 0.12850903 0.10243139 9.296339
17.801147 8.937897 0.1734564 -0.0129794 -0.099205464 -0.16699165 0.11076156 0.4352603
-0.15365982 0.14094469 -0.2094239 -0.03865522 -0.1108807 0.062792115 5.986187 12.611993
21.571085 0.11388915 -0.30771708 0.0940528 0.2456199 -0.13466142 -0.028012503 0.0832347
0.106444925 0.07365527 0.49687213 0.04325776 -0.18946125 -0.037234537 0.29378164 0.037268244
22.097157 12.566299 5.9908247 0.073351994 -0.03145712 0.050102394 0.12323847 0.21246389
0.18068458 0.37151915 0.17148638 -0.24777393 -0.016000971 0.1738363 -0.21969162 8.598315
17.229284 8.810967 -0.0026692792 0.026665332 -0.21477118 -0.06915688 -0.06820355 -0.15487769
0.15710136 -0.15703504 -0.12950337 -0.2543737 0.32293737 -0.17955095 5.8232975 12.838312
21.882187

linears.0.bias f4 [15]
00000000: 80a3 7dc1 e20d 8ec1 2888 c2c1 facf 7ec1
00000010: dfdf 88c1 d9f7 bbc1 6192 83c1 7303 8bc1
00000020: bca0 c7c1 0081 82c1 1804 8fc1 f528 bec1
00000030: 0d83 83c1 648e 8dc1 4255 c3c1
-15.852417 -17.756779 -24.316483 -15.925776 -17.109312 -23.49602 -16.446474 -17.376684
-24.953484 -16.312988 -17.876999 -23.769999 -16.43899 -17.694527 -24.41663
